model/model.pth (torch_old, 176029 bytes, 8 tensors)

conv1.weight f8 [10, 1, 5, 5]
0.15532579721906242 0.030499786367259814 -0.27186534241015886 -0.04925729323555915 -0.17627234578666306 0.026212798781398993 -0.09740019474909366 0.1755278985299285
0.29700831756250695 -0.003858291546121019 0.2607299777870288 0.1515290115145181 0.24407140928062354 0.20559565850826458 0.28682992503641447 -0.05508163399410781
0.0449039578794601 -0.06596617691498388 -0.13626589814639622 0.09972781233485394 -0.3017440527964135 -0.265835761694452 -0.2747459569482735 -0.054280220799910205
-0.24945736655191544 -0.16041943539283746 -0.1966991690595625 -0.3350547231289575 -0.229096174809658 -0.38103329820253856 0.24014786813463185 -0.20436165732129696
-0.07770700999952374 -0.233001172289313 -0.23421596361370747 0.26025813388765706 0.23102308326290005 0.21391501934824822 0.020509508105177595 0.11072256220503301
0.0815698446050188 0.1390557904300472 0.25736045231039123 0.37100798837560367 0.32039181981841686 -0.18220975469690356 0.03937920859659185 -0.018920948006992993
0.12712192399797884 -0.057436636494962334 -0.022543614227248484 0.1713787469284586 -0.011279704823027922 0.18989086767331287 0.11681380687959068 0.17617680868064028
0.2341031571902409 0.03344517221777613 0.04506948851577158 -0.2465519544767296 0.3316587635711531 0.16445131711590108 0.030324825639469956 -0.21264473607684636
-0.11937857833504793 0.2810562681433635 0.31902223219185144 -0.21511980710341755 -0.23302958725143044 -0.2517418835450632 0.41462686473554816 0.16136681870535516
0.12743284539751962 -0.2650464447792518 -0.340591195197297 -0.37794958952098723 -0.3407251463390295 -0.03998310685454418 0.1517750773582807 0.3842643068589762
-0.2654539059422292 -0.258681776763728 0.038610705514080926 0.07274863310570366 0.3714706346122063 -0.15229859054137565 0.06768015842188442 -0.05583371072910375
0.14087950806770508 0.21128091886399658 -0.03865281607349846 -0.09380946431219525 0.18625360490040674 0.2957903038790505 -0.07956392593705489 -0.08130498422304196
0.1906422757627818 0.023552408225761077 0.13036415995312112 -0.021714579557043534 0.010013223906596464 0.15610685359452517 0.049458104969967664 -0.03154593849634779
0.14295175566457982 -0.19864698085001517 -0.15611749489603227 -0.09493992075065733 -0.04260331917689607 -0.09400799584572085 0.03349896238014399 -0.13309868847337078
-0.0725181672160861 -0.17767805898185296 -0.2612260999429864 -0.13853835090716343 -0.05001961613335529 -0.2395549095061466 -0.11175831367909161 -0.2329482285171551
0.10725311620594027 -0.09118076341034599 -0.0006949930774361098 -0.05643723126669043 0.054714794375866384 -0.12978218017488868 -0.06139609749488179 -0.11052586188956687
0.1752751383619131 0.019559166877922095 0.11598159285128351 0.007441540017878655 -0.25166613803119803 0.021364781122821967 -0.07425585898360976 -0.1430716717986722
-0.22606175456047978 -0.25143833405259014 0.026085931445669768 0.01351164529720034 0.06073304382199624 -0.11843744366629096 0.2091426141048197 -0.07101140156446147
0.0280138140191662 0.12139814545971776 0.27970498657123016 0.325595859105701 0.22319382624373885 -0.16087439870360606 0.0831631101705851 -0.17083896965288242
-0.18188590985187622 -0.15818777560876326 0.2106590378850578 -0.06672664608578567 0.16045911881922295 0.14488121590038752 0.1769530353392973 -0.03849806456618504
0.25882931046686247 0.20075468909442087 0.10407238044477549 -0.22325724132944702 0.032336978396867194 -0.11357104197829493 -0.12765426984288125 0.22339401434531092
0.01746607347232698 -0.15115192278969328 -0.28998340144921053 -0.12620437324696407 0.16712030904819078 0.046201186426806644 -0.03985939471877317 -0.0013370119703553984
-0.1585744785622122 -0.06384583745683568 -0.010413754526258416 -0.3065715625677104 0.20956386785689593 0.15890573278348138 -0.11782459580146168 -0.30770304846307833
-0.0988727207327881 0.22446255590371367 0.2815536640723994 0.080604889122732 -0.09482589569345194 0.05655662796486616 -0.05443220066856957 0.11755840594183185
0.38484191526168515 0.35462432342248734 0.15321866585436017 -0.1234838311216011 -0.09974887100300521 -0.03892815164536228 0.10045090273609468 0.12608458285946567
-0.11082043348234291 -0.08358846908667379 0.16751923104978164 0.18240428579515194 0.12366394000071732 -0.06708562213575982 -0.2679093073583463 -0.31373426241760394
-0.04132579975827557 0.13618815656088207 0.18175384949512807 -0.04383102481863402 -0.2945016831984358 -0.1540792954210291 -0.060411841348196306 0.3102388869668406
0.0874328036514294 -0.026927387533156825 0.038028440482545896 -0.1418868711922646 0.004518363629119119 0.2942398295265741 0.038347021272205725 0.03503394342595467
-0.17819287541085824 0.356740125243375 0.3333214281494005 0.26166252399308126 0.08116045578204649 0.05553996262489981 0.060726291704944896 0.30375492759597855
0.269065699283276 0.39287637815021637 0.31264820671700255 0.00647782566206501 -0.13026479722948983 -0.17690102394521254 -0.18309272091996084 -0.1546379973305306
-0.09296743325634123 -0.2858570344266985 -0.15446325059472701 -0.1857914053025015 -0.06654987612601455 -0.36231705087819976 -0.3484892595273435 -0.0913702858788726
-0.13323070326665068 -0.005760942781673239
00000000: d6f7 a339 b7e1 c33f c2f1 ed03 563b 9f3f
00000010: 7f51 a4e4 3d66 d1bf ee89 127f 4038 a9bf
00000020: d8e4 2b9c 1790 c6bf 93cd 0226 87d7 9a3f
00000030: 7f46 121b 38ef b8bf 025f dcbb b277 c63f
00000040: 718a a42c 2f02 d33f b6ea 4980 6c9b 6fbf
00000050: 72a7 ebc9 ccaf d03f dbce 6c7a 4d65 c33f
00000060: 40dc 5f60 bb3d cf3f e10c bf62 f550 ca3f
00000070: fee9 e2e6 6b5b d23f bfd8 3af1 a833 acbf
00000080: 9f42 1bcd a6fd a63f 1af4 7dcc 28e3 b0bf
00000090: c0a6 0c34 2971 c1bf afd5 7a0c c387 b93f
000000a0: 5c7a a149 c64f d3bf 586f a5ff 7303 d1bf
000000b0: 8b44 f310 7095 d1bf fb7f 4ffa 9dca abbf
000000c0: fd1a 8b0f 38ee cfbf c1d7 53c2 9f88 c4bf
000000d0: df6e 2139 702d c9bf a763 8d5d 8971 d5bf
000000e0: 6e1c 3901 0653 cdbf ffe1 9d7c d962 d8bf
000000f0: 98d2 eb53 2abd ce3f 902b 60d5 8528 cabf
00000100: a82e 9e4a 9be4 b3bf f6c4 747f fbd2 cdbf
00000110: 1504 f6e7 c9fa cdbf c430 64bb 11a8 d03f
00000120: 5e1c 9e15 2a92 cd3f d9a9 1c3e 9161 cb3f
00000130: 7f6f 46ca 7100 953f d495 9957 5058 bc3f
00000140: 7f19 ebe6 c2e1 b43f b3b5 1b84 94cc c13f
00000150: d13d 7df9 9778 d03f 9830 284a 98be d73f
00000160: 65aa 01b1 4c81 d43f a3ba b734 a652 c7bf
00000170: 8323 21fa 8229 a43f 8bef 9853 0360 93bf
00000180: 7084 16fd 8745 c03f e01b adb6 5568 adbf
00000190: 1fd3 5b57 ac15 97bf a5c2 a420 bdef c53f
000001a0: de66 965a d019 87bf 00a4 3b0d 584e c83f
000001b0: dbe3 4478 82e7 bd3f 766a cc2f f68c c63f
000001c0: 0ddf 029e 17f7 cd3f d5d4 c4c1 b91f a13f
000001d0: f803 7216 5913 a73f 1708 9fb2 038f cfbf
000001e0: d212 bead e539 d53f 7b01 66a2 bd0c c53f
000001f0: 0a82 8399 780d 9f3f f6ec 8e55 f137 cbbf
00000200: d7c0 ca31 988f bebf 48bd 006e d3fc d13f
00000210: b87f 7d39 dc6a d43f a291 1dbc 0b89 cbbf
00000220: 1565 1fdc e9d3 cdbf d601 37fd 891c d0bf
00000230: af42 051e 3f89 da3f 3fe1 7ffc aaa7 c43f
00000240: bb93 b52f b84f c03f 85de 0f5d 85f6 d0bf
00000250: 6b63 2b03 3fcc d5bf 78df a179 5330 d8bf
00000260: 4cdc 1cd8 70ce d5bf fd5c aa70 aa78 a4bf
00000270: 0904 cda0 5d6d c33f adae be51 c997 d83f
00000280: 6882 2761 32fd d0bf 5d5e d102 3e8e d0bf
00000290: dabb ea4a c8c4 a33f ff87 0488 a79f b23f
000002a0: d85c c5c4 2cc6 d73f b911 cd2c 857e c3bf
000002b0: 6d95 02a3 7c53 b13f f70f 3173 3c96 acbf
000002c0: fbe6 e9f7 5608 c23f b814 65ce 400b cb3f
000002d0: 7f32 de49 4dca a3bf 46b2 46a5 e503 b8bf
000002e0: db98 e77a 28d7 c73f 669a 6874 3aee d23f
000002f0: e24c d72b 4d5e b4bf fd60 3d48 67d0 b4bf
00000300: bc6d d151 f766 c83f d967 495c 1f1e 983f
00000310: 80da c8d5 c5af c03f 10f2 2cc4 583c 96bf
00000320: 979e a629 d081 843f 615a 6f33 4ffb c33f
00000330: a87d bc9e 9252 a93f 90ae 530c ca26 a0bf
00000340: 7f19 be3d 3e4c c23f 1398 19a7 436d c9bf
00000350: 52b9 7477 a8fb c3bf cc7a b58e fb4d b8bf
00000360: eeb2 212d 1ad0 a5bf b949 b873 e810 b8bf
00000370: 58cc bea7 c626 a13f 731a 11b9 6009 c1bf
00000380: 4b17 8ff4 8c90 b2bf d09b 4596 27be c6bf
00000390: e678 07ad edb7 d0bf 42ab 31eb 9fbb c1bf
000003a0: 4408 e7ce 2b9c a9bf f66a f63a bca9 cebf
000003b0: 80cc 4e5e 319c bcbf 6737 925f 3fd1 cdbf
000003c0: 52a4 7fb2 f074 bb3f f92a df5c 9f57 b7bf
000003d0: b5b2 ee44 06c6 46bf 316b 223d 57e5 acbf
000003e0: a546 e7d8 9303 ac3f 7a34 bad5 b39c c0bf
000003f0: 0962 af2d 4f6f afbf 048b 2d42 6c4b bcbf
00000400: 407c 886d 6a6f c63f d38b 4f78 5107 943f
00000410: d0f7 3b3c f8b0 bd3f f27c 2330 057b 7e3f
00000420: 0db2 164a 4c1b d0bf 4eba d530 a6e0 953f
00000430: 50f9 de95 6e02 b3bf f0fe ad2b 2c50 c2bf
00000440: 8a58 5b71 97ef ccbf bddc 6dcf 9017 d0bf
00000450: ab86 c739 45b6 9a3f e240 5555 feab 8b3f
00000460: 4907 01ca 6618 af3f e126 2b93 ea51 bebf
00000470: ecdb e367 2fc5 ca3f d5cb 5c9f cd2d b2bf
00000480: d2b5 313c a7af 9c3f e366 8be8 f213 bf3f
00000490: d77f 76be afe6 d13f ce9b a403 90d6 d43f
000004a0: 4c67 3184 9d91 cc3f 270b 9944 8897 c4bf
000004b0: 2993 6a76 2d4a b53f c64e c525 0dde c5bf
000004c0: ab60 3599 0948 c7bf 8fed 6e3d 7f3f c4bf
000004d0: ec5c 2917 e0f6 ca3f b5d0 b55a ff14 b1bf
000004e0: 9536 d6a5 ec89 c43f 8d66 0cba 778b c23f
000004f0: 4ce8 daa5 65a6 c63f 88c8 8ab0 04b6 a3bf
00000500: d1e3 eccf a890 d03f 8def 1664 54b2 c93f
00000510: b65b 6dce 7ca4 ba3f b475 0d7b b193 ccbf
00000520: 5cfe 54f1 788e a03f 80c5 11e7 fd12 bdbf
00000530: 66c0 15a1 f956 c0bf 2c1d ded0 2c98 cc3f
00000540: 60a7 6959 a0e2 913f e5fb 8d3a f258 c3bf
00000550: 56dc 668a 168f d2bf 139c da03 7727 c0bf
00000560: 9100 eec2 3264 c53f 27a4 7a91 aea7 a73f
00000570: 0ccf 8259 7368 a4bf dc69 f8ab d5e7 55bf
00000580: 8dd5 b323 2b4c c4bf 27e3 dc67 3358 b0bf
00000590: 9c68 f378 ce53 85bf ed29 c754 de9e d3bf
000005a0: 632f 6f23 fdd2 ca3f 13da b9e6 0557 c43f
000005b0: e2b6 a1b1 c029 bebf b5d1 8120 68b1 d3bf
000005c0: ba8c 03fe b84f b9bf 103a 6464 30bb cc3f
000005d0: 9fa2 d0a8 f904 d23f 000a aea2 85a2 b43f
000005e0: 7b39 d188 8246 b8bf e057 f686 fdf4 ac3f
000005f0: bf0e 7193 89de abbf f7da e3c4 4e18 be3f
00000600: c573 0bfc 3fa1 d83f 31ce dd37 2ab2 d63f
00000610: e898 7d53 ab9c c33f 4087 40e8 a29c bfbf
00000620: 1f55 c55a 2489 b9bf 77ce 6b04 64ee a3bf
00000630: 9fee 1a7e 26b7 b93f 70a2 f423 8a23 c03f
00000640: 4603 8959 ba5e bcbf e5ca 0ccd 0d66 b5bf
00000650: 25aa 6729 4571 c53f 1ef9 110d 0659 c73f
00000660: de61 ffa1 70a8 bf3f ddda 1af9 852c b1bf
00000670: a07a 5914 6d25 d1bf 7af8 2ddf 3814 d4bf
00000680: b3bb e2bc a728 a5bf ba08 440f 9d6e c13f
00000690: a078 c0cb b543 c73f 64da 4a24 0571 a6bf
000006a0: 2d12 7d96 1dd9 d2bf 3a7a 69cf deb8 c3bf
000006b0: cd66 c305 4dee aebf d314 5e34 f4da d33f
000006c0: 73cd 4708 ff61 b63f 8158 4963 da92 9bbf
000006d0: 597e 61b8 7678 a33f 4353 c057 5929 c2bf
000006e0: 44c9 4b00 d981 723f f6d2 3f4b d3d4 d23f
000006f0: 46ba 8684 38a2 a33f 105e 8712 f8ef a13f
00000700: 138a 222e 06cf c6bf dfd6 c588 d4d4 d63f
00000710: c74a 3d66 2355 d53f 01e7 c82b 14bf d03f
00000720: c3f5 4f7f eec6 b43f c2a4 30e6 bb6f ac3f
00000730: bc9b c239 8417 af3f 4482 0182 b870 d33f
00000740: 1f69 b956 5f38 d13f c2ab e1f6 e224 d93f
00000750: 2a2a c09f 6d02 d43f 0457 e215 7e88 7a3f
00000760: 7dda f551 84ac c0bf f39e 3c58 b1a4 c6bf
00000770: 4f52 3e10 956f c7bf cb74 a08a 2dcb c3bf
00000780: 1dd6 6db5 b6cc b7bf 0a6e 8c4d 7b4b d2bf
00000790: 817d dea8 73c5 c3bf d478 d344 03c8 c7bf
000007a0: fd9a 83a5 6909 b1bf b685 13db 3330 d7bf
000007b0: 3157 2be5 a54d d6bf a509 ad05 0b64 b7bf
000007c0: 693a ad24 b40d c1bf 596e 764d c998 77bf

conv1.bias f8 [10]
-0.05691269369843327 -0.10488074769774348 -0.114781750093891 -0.1370028280002147 -0.509317791568832 -0.2260106528333806 0.08916162754444364 -0.10783549220902765
-0.06634440303252213 -0.0698003415544905
00000000: 68f6 521c a923 adbf 8982 57f5 76d9 babf
00000010: 4eb6 d436 5662 bdbf 3937 dc04 4f89 c1bf
00000020: f7e3 41d3 544c e0bf fbc5 3bc5 eaed ccbf
00000030: 758c 5ce2 4bd3 b63f 2fc6 6258 1b9b bbbf
00000040: 8b1d 4c61 f2fb b0bf 0ce6 3968 6fde b1bf

conv2.weight f8 [20, 10, 5, 5]
0.07526802225139406 -0.03628895328625556 0.03765447715643266 0.000692312435506242 0.011187543182998354 0.05798928185020542 -0.010786627518534778 0.02612491171246418
0.06607949997370631 0.030865438327129208 0.07074922259995681 -0.05682440236052168 0.04117802213568784 0.11342340150411835 0.12119884226465745 0.052945128690164225
-0.0404151802776584 0.0051492056133585614 0.060906070208356276 -0.08529285730166189 0.019083926323575195 -0.09159814258878783 -0.08404503081553949 -0.14411746174087448
-0.10995009616091028 0.015481740905235524 -0.04383653264478209 0.036702397175671454 0.10361082988177851 0.13066543913806522 -0.04297324288755235 -0.03316597732607426
-0.037796807955321296 -0.011827097998319132 0.13928325528457675 -0.03531814046938255 -0.05135396269898689 0.008875410354815517 0.03707970489238793 0.08655683636136835
0.055548252115716186 -0.03750467763573411 -0.07031234755801243 -0.06247244606958023 -0.03885541506978373 0.19739623305579948 0.034633437262031844 0.10808022724113583
0.060655119117275905 -0.029725753097843324 -0.0022495414002125826 0.03225679031124729 0.01026642658887268 -0.026947788637474344 0.05274985762931135 -0.04033717620144757
0.026637209177324792 0.014131905968454962 -0.13451706515607373 -0.0495014855119991 -0.15303976024528873 -0.06573811623768741 -0.08039928078295645 -0.12807727341463077
-0.1577426201866241 -0.11565100165170412 -0.10151378083899837 -0.25556187619417026 -0.26508616974175975 -0.1486716203758524 0.04758575609038136 0.06837818737302863
-0.1501376098304574 -0.13550881857681107 0.04753208356275864 -0.11727196060003964 -0.029503180901074854 -0.03720032354176522 -0.022599000537143508 -0.07575217573751594
-0.025467925145396638 -0.02749808536570192 -0.09541126615280578 -0.09724835459382519 -0.1784857118245471 -0.08022302863575073 0.025235190257678432 -0.0500641456433499
-0.031085486944924755 -0.13736581725695549 -0.08979192584789727 -0.049882315487830696 0.028115017012446186 0.03537654231225364 -0.088762638568889 -0.11944660519718477
-0.11996148882659964 -0.06757163710712343 0.04268046030815398 0.0886327475074959 -0.06014927378553269 -0.08519098092951127 -0.08351874258806123 -0.07812243780865229
0.07264559311194657 -0.02831851674128498 0.01300226413043216 -0.13684760511059807 -0.23811017711606206 -0.05811668266125791 0.03427679843964971 0.08791497800549643
-0.004413989671600739 -0.1491008053333518 -0.13391424524400944 0.05862953417341484 0.16974288199241175 0.18947837212982938 0.06075030758654746 -0.08071220716592885
0.0850805270268863 0.09293357606780348 0.1263556776521753 0.04625719657424906 0.010551762763398597 0.017586725061859813 -0.08065390341509406 -0.060753443133568535
0.06081267236728599 0.03286181550676204 -0.003646684509246065 -0.03507334713330474 0.0325925888198324 0.05700150668534953 0.020217023468923727 -0.012216073898322827
-0.08445407765476305 -0.026724047611182116 0.018201020678822916 -0.04704990492412805 0.05494749874862147 0.058919699482601944 -0.020900803722644065 0.04297451754630583
-0.0019235237586641845 -0.011376563327535614 -0.04094830532724544 0.026405435439014798 0.07890410258541077 0.02215591928912637 -0.025452832154422397 -0.00645935264680053
0.051963296214774614 0.03769687215011105 0.06782769957036348 -0.0669064279960721 -0.04491319686250842 0.015469039817743563 0.0016862278631852015 0.03593183000481844
-0.001963393870344903 -0.031236542757514862 -0.061718689258671175 0.03587032400681251 0.08660816553113503 0.009497794296577338 -0.047482605480385014 -0.1254487071070623
-0.08077035472567777 0.015727769391574498 0.06670222234579991 -0.03993776866940882 -0.08734892212409863 0.0029384864802542297 -0.09480512266736618 0.044265922348218995
-0.045133550225802406 -0.004309220428595244 0.007075805220437609 0.10346669145277641 -0.042963557207125046 0.03850712163055934 0.007871732342520239 0.0721315852655226
0.16790104336463402 -0.02194562466556184 -0.06212411079086561 0.06387124213030805 0.11057538704295845 0.041372321485574674 0.02760243924384201 -0.0681882666384078
-0.07391644612668012 -0.010004960360439212 0.04194048798180411 0.0737235101876681 -0.02769643979466293 0.07848641395832483 0.01649301211233333 -0.07881149899360607
-0.0626308400548471 -0.019691795100065797 -0.030634141835996997 -0.11191511081247002 0.03857740444406293 -0.05125731618597874 -0.04178949315311836 -0.050799382638291146
0.04727544056596648 0.10628479958142992 0.06419629185367318 0.06616252898166931 0.04684835561921879 -0.0016284864683097928 -0.0064252162264841085 0.092392984838172
0.02882162619056445 -0.003162363122531365 -0.006803329686875033 -0.022539588293690942 0.08423304069564785 0.03360327881060656 -0.034983878044264075 0.025287169453599087
-0.026620753663765394 -0.08918228628286161 -0.07443443178707017 -0.14768374463072853 -0.0726148669388166 -0.10173391799003505 -0.008868707873090013 0.05100002818785364
0.06399716556013622 0.021549299689223166 -0.020425527854563766 -0.0508705200257999 -0.019212145186236127 0.06428455944449696 0.03939687243844216 0.07324857817638376
0.04709692818035784 -0.006191355258541146 0.045451536343711234 0.14688954369603283 0.06036040417904525 0.1501627990377605 0.00036930624404176246 -0.10248728624531535
-0.17140514436152662 -0.1193817592362075 -0.01771824611543101 -0.059444576614634446 0.04972684563510913 -0.009564205304733953 -0.05659178458129718 -0.10562499026999923
00000000: 481c 01de c344 b33f bc1d 2437 7794 a2bf
00000010: 9fa5 de97 7247 a33f fa4e 72a2 89af 463f
00000020: 5c9f bfa0 7ee9 863f 795c 216a c5b0 ad3f
00000030: c8f0 68a3 4c17 86bf 32e7 a925 7dc0 9a3f
00000040: c7b6 520b 96ea b03f 8853 c480 309b 9f3f
00000050: dcc3 48fd 9e1c b23f 92a1 818b 1618 adbf
00000060: 3903 c624 4915 a53f 19af 0fe8 5009 bd3f
00000070: edfa d627 e306 bf3f 52dd 69b8 9f1b ab3f
00000080: b9e5 1b6b 4cb1 a4bf af27 5b5b 5517 753f
00000090: 5375 5897 142f af3f 966a b1b0 c0d5 b5bf
000000a0: d090 c19d bc8a 933f 670e cbd2 f972 b7bf
000000b0: 587a bea2 f983 b5bf c0d3 7ae4 7072 c2bf
000000c0: 9c02 3483 b025 bcbf a32c fc16 e4b4 8f3f
000000d0: e7a3 28f4 bd71 a6bf bdce 1b17 a8ca a23f
000000e0: 5989 da45 3d86 ba3f 4661 e825 a5b9 c03f
000000f0: 5336 9cc1 9600 a6bf cb25 e987 21fb a0bf
00000100: 6662 1f6c 1a5a a3bf 31fc df38 ce38 88bf
00000110: 4cf1 29a1 08d4 c13f 4306 8b24 3815 a2bf
00000120: 77d2 9f0c 114b aabf b439 b369 452d 823f
00000130: c85d b76f 1cfc a23f 38d4 6abd 9628 b63f
00000140: b9b9 5f0c d270 ac3f d7f5 c827 d033 a3bf
00000150: 1943 4471 fdff b1bf 9e39 8a71 63fc afbf
00000160: 7f94 fe61 dbe4 a3bf 3104 aa9e 4744 c93f
00000170: c2e8 c650 79bb a13f 1e4d 5851 25ab bb3f
00000180: 9a2a e311 300e af3f a4e8 9d85 6d70 9ebf
00000190: c84f d657 a16d 62bf b1e5 eb46 f683 a03f
000001a0: c764 9173 9006 853f 1603 977b 3398 9bbf
000001b0: aae9 c582 0702 ab3f 2a48 3209 13a7 a4bf
000001c0: 79e1 17d9 c846 9b3f 54a0 b74f 30f1 8c3f
000001d0: d3b3 cced da37 c1bf a541 c13a 4258 a9bf
000001e0: 83df 9e8e ce96 c3bf 766d 5793 36d4 b0bf
000001f0: 29b0 9519 0c95 b4bf c29d 560a d664 c0bf
00000200: f085 7101 e930 c4bf 75fd d7d5 4d9b bdbf
00000210: b4fb cba0 cefc b9bf 68ef 1633 205b d0bf
00000220: b56a 6afb 2bf7 d0bf 46c6 adf1 ab07 c3bf
00000230: 1ac6 5304 295d a83f 1be4 869e 3b81 b13f
00000240: c78a 0f8e b537 c3bf 34b2 0d5c 5a58 c1bf
00000250: e358 d310 2056 a83f 20d5 8303 8905 bebf
00000260: 4371 64f4 1436 9ebf 7866 06ba eb0b a3bf
00000270: 49d2 ea40 3124 97bf d2ba 649d 7e64 b3bf
00000280: ffc4 6286 4314 9abf 50aa 6445 7528 9cbf
00000290: 35d7 cb6b df6c b8bf 90fe 91a6 44e5 b8bf
000002a0: a07b 8bab 9ed8 c6bf 3a6a 6014 7f89 b4bf
000002b0: 0ad4 75f3 40d7 993f 9b11 7bf8 01a2 a9bf
000002c0: 6318 3cb7 dfd4 9fbf e37c 5afe 3395 c1bf
000002d0: d629 f688 9afc b6bf 7b85 56c3 2c8a a9bf
000002e0: f337 61da 2eca 9c3f 42aa 8dc8 df1c a23f
000002f0: 6892 c2f5 25b9 b6bf 81ac f07e 0d94 bebf
00000300: c12a 4acf cbb5 bebf 7724 83f3 5f4c b1bf
00000310: 704b 679a 36da a53f dd39 e6bf a2b0 b63f
00000320: 5ff3 92b7 e2cb aebf 20a4 017d 13cf b5bf
00000330: cfcd 04fc 7b61 b5bf 13d2 7803 d5ff b3bf
00000340: f444 9dce e698 b23f 0ca6 197d 87ff 9cbf
00000350: 8599 b659 eea0 8a3f 5233 3eea 3884 c1bf
00000360: df74 c7ef 647a cebf 50a4 c346 78c1 adbf
00000370: 81a8 9e80 ba8c a13f f1b6 5c93 9881 b63f
00000380: 4eee 8c54 6714 72bf a064 5b35 bc15 c3bf
00000390: 5151 e51b 1a24 c1bf 1b85 b5b7 b004 ae3f
000003a0: dd6e 717f 22ba c53f 5e68 ccc9 d340 c83f
000003b0: 45c1 9c10 aa1a af3f 7767 2a22 8ea9 b4bf
000003c0: 295f 1b61 d6c7 b53f f65a e9ad 7eca b73f
000003d0: 9a0a 973f 6c2c c03f fb69 fbf4 05af a73f
000003e0: e61f df9f 299c 853f ce0e f023 4102 923f
000003f0: 196b 76f5 bba5 b4bf bc92 c146 131b afbf
00000400: 28ed ffad d622 af3f 7007 c78d 43d3 a03f
00000410: ade4 97d6 a6df 6dbf 692f cc3d 22f5 a1bf
00000420: a074 25ce f9af a03f 1f96 122e 4d2f ad3f
00000430: 5e68 7c7a c5b3 943f 90d0 07af bd04 89bf
00000440: 5d82 8a4d c89e b5bf cbef 067a 8c5d 9bbf
00000450: 6507 47d2 49a3 923f 0bab dbd5 ec16 a8bf
00000460: 0ea2 3e1c 1422 ac3f 7760 bc0c b92a ae3f
00000470: eca4 cb31 0567 95bf 3974 d886 c100 a63f
00000480: 4519 bde8 d783 5fbf 1f0b 767b 984c 87bf
00000490: 7c0e 6a20 2df7 a4bf afbd 96c6 060a 9b3f
000004a0: b5e3 1f2c 0f33 b43f 13d8 0993 0ab0 963f
000004b0: 1f79 c6a6 4e10 9abf 7e01 f145 1f75 7abf
000004c0: 356d abe3 ee9a aa3f 2baa 1722 014d a33f
000004d0: 6fe9 6af7 275d b13f 94a3 2298 c720 b1bf
000004e0: 55d7 5dcf dcfe a6bf a31c f160 3bae 8f3f
000004f0: 7cba a961 8da0 5b3f 0b23 8325 a865 a23f
00000500: a425 cb0e 8915 60bf a0a3 55e6 78fc 9fbf
00000510: 5e01 d68f 9799 afbf 792a 0359 985d a23f
00000520: dfd4 85e6 f32b b63f a97d 1a5f 9473 833f
00000530: 4791 55db a34f a8bf 22d7 2c07 b40e c0bf
00000540: 9379 08b0 5dad b4bf 0010 b4bc f01a 903f
00000550: 07b5 8b97 6513 b13f d4e2 9e24 b972 a4bf
00000560: 9125 ddbb 7f5c b6bf 6144 a3ea 7312 683f
00000570: c87f 5905 2645 b8bf 4c31 a0e1 05aa a63f
00000580: e929 58a4 be1b a7bf df3e fe8c 8ba6 71bf
00000590: 07fd 3b00 85fb 7c3f dfd6 0308 cb7c ba3f
000005a0: ebb4 3fc2 51ff a5bf 2df8 2198 34b7 a33f
000005b0: 37bb ca07 0e1f 803f ac5b b92f 3777 b23f
000005c0: 9a91 1b09 c87d c53f 445f eaf0 e978 96bf
000005d0: 399a 4740 bbce afbf 21c5 1aa0 dd59 b03f
000005e0: 8190 1727 ab4e bc3f cff3 7abf c02e a53f
000005f0: e856 5e57 d043 9c3f d6d1 2e47 c974 b1bf
00000600: bf29 c02e 30ec b2bf 4fed 5d0c 7b7d 84bf
00000610: b82f 8540 3979 a53f b0cd 3341 8bdf b23f
00000620: 56eb 889c 745c 9cbf 639e 2185 af17 b43f
00000630: 5e3e 8a4e 8be3 903f 28ed b98a fd2c b4bf
00000640: e9ae c121 9308 b0bf 1f38 d1ff 152a 94bf
00000650: c078 4e75 8e5e 9fbf 7c26 defc 77a6 bcbf
00000660: 5754 e7e4 6ac0 a33f 3126 6621 663e aabf
00000670: 3870 d1b4 6e65 a5bf 6849 2d6e 6002 aabf
00000680: d506 458e 7c34 a83f ba9f 430a 7b35 bb3f
00000690: 2237 090e 2b6f b03f 7969 320a 07f0 b03f
000006a0: 4708 83f6 81fc a73f 8347 e507 5eae 5abf
000006b0: b2e8 ffd8 5351 7abf 7580 4210 11a7 b73f
000006c0: 72c1 9f97 6a83 9d3f e824 0fc6 f4e7 69bf
000006d0: 0801 25e8 cedd 7bbf bbc9 582a 9e14 97bf
000006e0: 38cb 07eb 4b90 b53f 5352 0fef 7234 a13f
000006f0: 52bb 2c28 68e9 a1bf dc18 3f37 e1e4 993f
00000700: e6e1 8589 7842 9bbf 87a7 f77a a6d4 b6bf
00000710: 7dc8 388a 220e b3bf 647e ab0a 4de7 c2bf
00000720: c9a2 b44e e396 b2bf e740 a9ea 3b0b babf
00000730: fc7c 2ed2 c129 82bf cee5 52fa ac1c aa3f
00000740: 5713 1e45 1e62 b03f 26ec aa05 0511 963f
00000750: c438 8ef8 6dea 94bf f9c1 ae67 b30b aabf
00000760: 3926 0b3d 59ac 93bf 90ae 73f0 f374 b03f
00000770: 6226 60ad d32b a43f 49fe be37 6bc0 b23f
00000780: 53ab 8dac 161d a83f 4454 a745 1b5c 79bf
00000790: 4f63 4c7c 6c45 a73f dd3f 26cd 46cd c23f
000007a0: 173d d813 8fe7 ae3f 47b4 78db 8838 c33f
000007b0: 43c1 883d ee33 383f 79ee ad56 9b3c babf
000007c0: ab0f b390 9af0 c5bf a690 a88f cd8f bebf
000007d0: 75da 6e5e bb24 92bf 1306 f800 856f aebf
000007e0: 75d9 780f cc75 a93f 60ef f7e7 6596 83bf
000007f0: 2c76 ff2f 99f9 acbf 4d97 d946 3d0a bbbf

conv2.bias f8 [20]
0.026830415936758 -0.04263570561150101 -0.04183682181680381 -0.04750559857643075 -0.033748017119254244 0.007263970048291736 0.032772278324309755 -0.05729976732727431
0.00673559270686035 -0.05410850322611942 -0.014915506968404234 0.001923695435430561 -0.03178445811756172 -0.060186028384207724 0.05265544326255822 -0.08335606256159994
-0.020629097862728544 -0.07357220571992538 0.023820351224433402 0.002183956897449081
00000000: b020 f2bb 6e79 9b3f 448f 7ce2 58d4 a5bf
00000010: 6f89 f1ca a26b a5bf 3d7d 8660 a752 a8bf
00000020: d101 aa8b 6b47 a1bf 1b9d be1c d3c0 7d3f
00000030: 7394 3c2f 87c7 a03f 1765 7a25 6556 adbf
00000040: b47f 52e6 c796 7b3f d658 9517 1cb4 abbf
00000050: ac79 0f75 058c 8ebf 988d e33e 9084 5f3f
00000060: 03a3 4570 0d46 a0bf 802f 2cff b3d0 aebf
00000070: b0c3 897d a7f5 aa3f 541a a0aa d256 b5bf
00000080: 7165 aa52 cb1f 95bf 972f 76c9 a0d5 b2bf
00000090: 27e4 f3b5 5c64 983f d0d1 69ee 16e4 613f

fc1.weight f8 [50, 320]
0.004212093763386537 0.05087398955900587 0.04459792702403039 0.030816402256707832 -0.11056109165878346 -0.10127990591092179 -0.011625790166585112 -0.014979770845388679
-0.20763685995286382 -0.051587788005338454 -0.10184392190560719 0.0006671916033403104 -0.024467127189847653 0.10048446957535498 0.08022344186181848 0.12577328673543484
-0.03569259947885852 -0.046500710001745785 -0.11957986713627464 -0.03985216993829185 -0.07379254434560405 -0.06965430735935906 0.009035158536128718 0.026237558478488215
-0.017014505467864104 0.004355164337950215 -0.043121926175035 0.03477646798924509 -0.014392196673136655 -0.032210878684860375 0.01245050991677031 0.027528651309601592
-0.0029998104438253076 0.09199249677632165 0.07437691750675496 -0.014884104231686098 0.00025666310190744854 0.05542183902389255 -0.033256362606713524 0.01709665259718351
0.10206502677230463 0.006393156635492484 -0.02036759568091354 -0.03268415613342682 -0.03393321348812452 0.0073870528310534325 -0.04759425394558133 -0.14839156563812675
0.021648952403687628 0.02685216858070384 0.016020162128984026 -0.026720113521203542 0.05022306319957833 0.019389096081678412 0.02563426502769111 -0.074991731998617
-0.020089484029117633 0.06719004080312424 0.04612378417406068 -0.052877932598848876 -0.03839547506798681 0.03825191742683254 -0.03836347006832319 -0.10198392613943864
0.013537323083452374 0.07911048609634463 0.1279066125161207 0.012623944013674705 0.02767332423326066 0.04746275675186239 0.05172410231748151 -0.09253932785186915
-0.04780581613533044 0.04157822022260494 0.017080845483136202 -0.064661143852296 -0.0017483488465505086 -0.004924848075908058 -0.07288083807277414 -0.060303601060617336
0.001477732914810595 0.013926442898861306 0.004909458273535408 -0.03572584355826547 0.03169149857994086 0.0013160845171406158 -0.13268574961797328 -0.07620922022605714
-0.03688218424394757 -0.056919447384993216 0.026981486956641702 0.030380892973841184 -0.017659660024996967 0.03115794302499216 0.10973679944637708 0.0965451549713103
-0.05592447711031103 -0.044900529115568126 0.0337605204786247 -0.008863525807814422 0.02191961123744244 0.013857552992275693 0.01690439776617428 -0.044533647903761
-0.03748155135415669 0.004723220750923049 0.033896355310775575 -0.03032304296816343 0.02269475517965118 0.0569210935086262 0.05553160203453464 -0.0014955032321608231
-0.012471849953112644 -0.014548613301669504 0.06511447025979038 -0.04460081820062374 0.0219494032238592 0.05545136192247157 0.06964558574974365 -0.032943131395192525
0.02368598796450488 0.08157836427703168 0.010070136897901238 -0.05914150266366901 -0.06568622520522546 -0.050739845780474 -0.02765818800115565 -0.07974825093606826
-0.048105108965110215 0.012865422108933646 0.029863358401099493 -0.041134232969927145 0.008311328902931955 -0.00429049906858247 0.09491073394810436 -0.003547474938231202
0.04671851197412583 0.05627925709326496 0.025318742645335728 -0.011257185013306956 0.04041124215643784 -0.04982488294270275 -0.004298040789355025 -0.04639436678323927
-0.03314970667484389 -0.0027840786038978516 -0.014666447683099059 -0.06832055345870905 -0.034413831625189156 0.02204218585462224 0.05584034286536127 0.025197180803244477
0.010728952165298625 0.07907538917724792 0.005194138679478891 -0.0214223490587248 0.08455302005278159 0.12251630178315497 -0.11746661014545096 -0.0310277467429565
-0.08010804830410403 -0.08688226743774848 -0.050528363646267074 0.02329924910648427 0.0038332850995562427 -0.01658901946309882 0.02897039000983431 0.06880860449524098
0.045437483680060564 0.0077169915281765965 -0.05222091745669098 0.005120960838180937 -0.015889949477204054 -0.08746907948228852 -0.03966167912976836 0.1040565023525534
-0.047183363368502165 0.013634327171399407 0.034805272453148246 -0.02424643937578799 -0.0890983488541599 -0.06810202401157621 -0.07641075296013408 -0.058261169069302524
-0.02517673368086854 0.08734956411069172 0.07538823142914021 0.0003400563640975109 0.008790410954292198 0.05728076759265984 0.0019489889827564043 0.08696325191222998
0.031483147244256625 0.01643914252965998 -0.012004653835276786 -0.053732296336068124 -0.0033993951330385155 0.020723932471105568 -0.015901683850792332 0.04459091119206447
0.013173253466239753 -0.0026513210996109305 0.021738009801087903 0.029170825824889737 -0.04050290201493481 0.016994817453857582 -0.050509387270277276 -0.011897012055446007
0.022714841459254214 0.11656283847892232 0.016654027540040663 -0.027886207818949526 -0.07507028497941831 0.08301567357007052 2.8108571856006968e-05 -0.06857724855245174
-0.030931091375651698 0.06578092793630591 -0.05247578867962097 -0.09526076367686775 -0.06952256171964245 0.007469545334723707 -0.041566205824241066 -0.0473634903465438
-0.004432336058874574 -0.0071716678832786564 0.005847537872679442 0.05183724575260384 0.04840932939949837 0.011885884382642037 0.03168981061880485 0.036873949861921856
0.014104550313854682 0.052155707066014384 0.028913614359503067 -0.04723885494354124 -0.020976039272589238 0.006308741323747153 0.05442275562998959 -0.009454546303112805
0.05512632219904151 0.06674314695881965 0.00621148080280959 0.008898729627648967 0.002372248110324314 0.04698562102170936 -0.0004680237078879003 -0.04872521904764163
-0.002318509111982831 -0.059685577046034735 -0.05865007460597692 -0.046057649926407325 -0.061334121842646534 -0.0357713315352592 0.05914951765523398 0.09921265182526436
00000000: 3305 624f b340 713f abf6 bed2 270c aa3f
00000010: fb40 131c 8ad5 a63f 2de4 7dbf 558e 9f3f
00000020: c770 e250 bb4d bcbf 241e a1db 7aed b9bf
00000030: 25f4 7124 43cf 87bf f065 0fcf b6ad 8ebf
00000040: 0b89 7839 d893 cabf cd39 b6ec b669 aabf
00000050: a786 e179 7112 babf 2ae1 e90e cfdc 453f
00000060: 1b0c 6e1c e90d 99bf aa01 95a6 59b9 b93f
00000070: 0648 2b03 8689 b43f 979b 9ecc 5619 c03f
00000080: f31c f1e6 4c46 a2bf ba84 65e9 f0ce a7bf
00000090: 3e3e 9c42 c99c bebf 9b83 1eed 8067 a4bf
000000a0: f32a a774 11e4 b2bf 774c 225c ddd4 b1bf
000000b0: 532f 6a73 0681 823f c833 5ebe 04de 9a3f
000000c0: 8319 2b22 406c 91bf dc39 6786 b8d6 713f
000000d0: 3519 53bd 1314 a6bf 454f 5ea1 38ce a13f
000000e0: 91d2 3af0 a779 8dbf aec5 0dbd f17d a0bf
000000f0: b7d5 4927 a77f 893f 8397 4f84 7830 9c3f
00000100: 8e83 03f8 0e93 68bf 3cb6 21fd d18c b73f
00000110: 3cd0 449c 5d0a b33f 9126 3ea7 8e7b 8ebf
00000120: 41e2 f7a0 17d2 303f c3ff 2e54 4060 ac3f
00000130: a43b 8f5b fa06 a1bf 9f99 1aef c881 913f
00000140: ed6a 0d00 ef20 ba3f 2aad aeea b52f 7a3f
00000150: c904 6435 3edb 94bf 847f 614b fabb a0bf
00000160: 22ff 5bb4 b15f a1bf 68d2 2be5 e241 7e3f
00000170: 1bfb 5828 465e a8bf c180 b5ac 7efe c2bf
00000180: 4d18 449a 242b 963f e3f0 8587 227f 9b3f
00000190: d9b2 aee1 9667 903f 683b e076 845c 9bbf
000001a0: 3bee e45b d6b6 a93f 697c 4736 bcda 933f
000001b0: 8ec0 cd67 de3f 9a3f 7a8a 677c a832 b3bf
000001c0: ed23 9873 5692 94bf 6cc7 ddd3 5d33 b13f
000001d0: 1bd2 3061 899d a73f 4061 62fe d012 abbf
000001e0: 5278 765b 92a8 a3bf 400f b75c c195 a33f
000001f0: 70ea 9b72 60a4 a3bf c18f 7c5b 9e1b babf
00000200: 10bb 59bf 74b9 8b3f 48f1 8db6 9540 b43f
00000210: fd74 d96e 3e5f c03f b46d 7b15 95da 893f
00000220: e8bd 365a 6556 9c3f fef3 0dd8 094d a83f
00000230: 64b1 bcdf 947b aa3f a1b4 b74a a8b0 b7bf
00000240: 143c b801 017a a8bf 81f8 2990 bd49 a53f
00000250: 4ed0 f322 a47d 913f 65e5 2afa a18d b0bf
00000260: 073a 8c47 1ba5 5cbf d6db c7d6 132c 74bf
00000270: 3113 0790 51a8 b2bf e9d3 c514 1de0 aebf
00000280: 7338 a5a2 0f36 583f 22da 6686 7785 8c3f
00000290: 1055 9dab f01b 743f a0d6 6863 a84a a2bf
000002a0: 4895 ec3b de39 a03f 3ada 6efd 0e90 553f
000002b0: 7b91 a0bd d8fb c0bf b04a 868c 7282 b3bf
000002c0: 88fe 43be 38e2 a2bf c0c4 0cba 8b24 adbf
000002d0: 5e0e 4ef0 08a1 9b3f 85d3 fb36 2b1c 9f3f
000002e0: 7f38 10b9 5f15 92bf 763e 3629 dee7 9f3f
000002f0: eb36 cafc b517 bc3f 3e64 30eb 2eb7 b83f
00000300: d328 7810 22a2 acbf 57b9 3fc0 33fd a6bf
00000310: 0609 b416 0f49 a13f e746 c64b 0a27 82bf
00000320: fa96 9f35 1872 963f db3b 3c47 5961 8c3f
00000330: 48d6 41ee 624f 913f 5def a242 1dcd a6bf
00000340: 06f5 892a c830 a3bf a315 83ea a758 733f
00000350: 5ad9 06f3 dc5a a13f 1730 74f7 000d 9fbf
00000360: 6c39 263d 4b3d 973f 44eb 24f6 c224 ad3f
00000370: 1c00 445d a36e ac3f 6ccb 485e 9880 58bf
00000380: 6c99 5a5d d78a 89bf 1c9e a9d2 a9cb 8dbf
00000390: 331d 4388 57ab b03f 8ad1 171f ebd5 a6bf
000003a0: 4482 0d84 e779 963f af8b f3f3 1e64 ac3f
000003b0: 171d 1b09 4bd4 b13f cbbb f00f ecdd a0bf
000003c0: 8f57 b9be 2341 983f e78a a1d6 51e2 b43f
000003d0: f34e 24e5 a69f 843f deb2 8d87 cb47 aebf
000003e0: bedb 0dfd cfd0 b0bf 6462 76b4 92fa a9bf
000003f0: edf0 b993 6d52 9cbf 5d01 afa1 616a b4bf
00000400: ef23 8d9b 3ba1 a8bf db26 a8b9 2f59 8a3f
00000410: d0cd b90e 8094 9e3f e229 b4d2 8b0f a5bf
00000420: fe5a 98ae 8705 813f 79e5 ed12 ea92 71bf
00000430: f1b1 58e2 114c b83f 6e88 fa1a 980f 6dbf
00000440: 25e3 1722 7deb a73f 8d47 5181 a2d0 ac3f
00000450: dedb 8c0e 28ed 993f f840 d1cb 010e 87bf
00000460: 0bc0 e746 c8b0 a43f d628 88a5 a582 a9bf
00000470: 7cd2 088a d29a 71bf d0f3 1aa0 00c1 a7bf
00000480: 86b5 1494 fff8 a0bf 1219 b4d1 a2ce 66bf
00000490: e6e2 2d49 7109 8ebf 42f1 bfae 747d b1bf
000004a0: 1c71 b892 b09e a1bf fc06 830d 3a92 963f
000004b0: 38ed cefc 1a97 ac3f b65d 012e 4acd 993f
000004c0: 62c9 5c95 0ff9 853f eb4b 6fe2 483e b43f
000004d0: d0e3 25fc 7246 753f 6d60 7182 bdef 95bf
000004e0: 549c e747 44a5 b53f 3fb1 6275 3a5d bf3f
000004f0: 845a f2b0 4a12 bebf 4147 1ed6 bcc5 9fbf
00000500: cacd 9c07 f681 b4bf 3d59 3f91 ea3d b6bf
00000510: 2a21 c38a dade a9bf bb1d bc23 c2db 973f
00000520: bd5c 7144 fb66 6f3f 7051 4440 b6fc 90bf
00000530: ef12 94f6 69aa 9d3f b28e fdd1 709d b13f
00000540: b837 d6f4 9443 a73f 65dd ca23 da9b 7f3f
00000550: 5e86 4939 b3bc aabf 9272 2f75 b7f9 743f
00000560: 0cd6 5b75 7445 90bf aea3 c9a3 5f64 b6bf
00000570: 1f9a 881d 894e a4bf 4a55 8a6a 72a3 ba3f
00000580: 227f 2af5 6a28 a8bf e6d8 6e6a 50ec 8b3f
00000590: e14b d425 ffd1 a13f 0761 a700 0fd4 98bf
000005a0: 90ca 743e 26cf b6bf f3ce eb5d 226f b1bf
000005b0: 6ec9 06b5 a78f b3bf 0a0b 8f6f 68d4 adbf
000005c0: 7123 1eff edc7 99bf e8de 2c81 8a5c b63f
000005d0: c9ce 7da4 a44c b33f 41a8 6cf6 3249 363f
000005e0: ef63 89fc b400 823f db20 009f e753 ad3f
000005f0: c7ab 3cfc a6ee 5f3f d8b5 ea42 3943 b63f
00000600: 9316 941f 8f1e a03f ca1c 282e 6cd5 903f
00000610: 2a80 fa5c e595 88bf af39 01af cc82 abbf
00000620: acca 855d 0cd9 6bbf 97e6 d490 a738 953f
00000630: f2a7 5cf0 8748 90bf 8e9a 89b2 9ed4 a63f
00000640: 392b 8e26 94fa 8a3f a4ae 3f2d 39b8 65bf
00000650: eb04 b424 7d42 963f c42d a9fb f4de 9d3f
00000660: 842f 18df cbbc a4bf a7c9 a9e4 1667 913f
00000670: 9a05 efcc 5ddc a9bf 7808 96ed 755d 88bf
00000680: 4b27 ce34 8f42 973f 9e26 32eb 0fd7 bd3f
00000690: 474e 86de c00d 913f 530d 5eba 338e 9cbf
000006a0: 1454 e362 ce37 b3bf 05f3 09e3 8340 b53f
000006b0: 3aa1 8859 5679 fd3e 394e c84f 478e b1bf
000006c0: f052 8d67 66ac 9fbf 0cdd 2fd6 04d7 b03f
000006d0: 3deb 6b48 1bde aabf a889 9568 0263 b8bf
000006e0: 8185 eb08 3bcc b1bf b7a8 dbce 6298 7e3f
000006f0: 2d91 446d 2a48 a5bf 9829 2004 0740 a8bf
00000700: 5818 af26 a427 72bf b666 43f0 0960 7dbf
00000710: fff1 cd7e 96f3 773f 6fbd 7156 698a aa3f
00000720: 8f2c 2f8d 1bc9 a83f bded a865 a057 883f
00000730: 64ca 7298 a539 a03f b46c 7671 24e1 a23f
00000740: 2e14 95b2 d8e2 8c3f 64ec 4b20 27b4 aa3f
00000750: 0f38 55d0 879b 9d3f a87e 2af2 b02f a8bf
00000760: 7297 b32a be7a 95bf 8774 a1da 31d7 793f
00000770: 1692 2da7 4cdd ab3f f7f3 5cb9 e75c 83bf
00000780: a8be fc6d 8439 ac3f a795 6b31 1416 b13f
00000790: 4258 86ae 3571 793f 5747 d045 7f39 823f
000007a0: e3ad a801 f76e 633f b44a 57d3 7f0e a83f
000007b0: 17c8 e584 22ac 3ebf 14a1 990c 83f2 a8bf
000007c0: f459 f719 44fe 62bf 6245 e9a2 1b8f aebf
000007d0: 2e67 aef0 6107 aebf 193e 5448 de94 a7bf
000007e0: f1d6 e29e 2f67 afbf 7a18 28b6 9e50 a2bf
000007f0: 0a8b ce77 d848 ae3f b55e f016 0066 b93f

fc1.bias f8 [50]
0.03645032932524752 0.03405532001533677 0.07492815681953573 0.0021554838425126717 0.0556926839134866 -0.010683737286872759 0.08247302016685959 0.00412398922909562
0.10533870730896971 0.038551879467921095 0.03294905904357451 -0.02694929263848573 0.011779972239547184 0.014337680679915175 0.009201308463822968 0.04007283439795571
-0.039094761504413156 0.02519831128122687 0.10844060841765252 -0.010530312457927911 0.03672681770305394 0.12873128205494422 0.07659878293296285 0.03664715439484076
-0.017377206483758602 0.019410481019078833 0.007249643071043879 -0.023340222457309816 0.10178575536185616 0.09024676826467307 0.02863211988117025 -0.01188285003971229
0.035504151719340765 0.05412828178677942 0.09718180677030686 -0.022690762188993182 -0.013705697344324448 -0.03238570749076898 0.030710177500908976 -0.008705997086410344
-0.012388966218377366 0.05517024272972956 -0.013053159909182755 0.109173433574422 0.11695806922898284 0.031192752089575466 0.04396312039343292 0.03326827290076134
0.07273244542740075 0.009935815315460735
00000000: 93bf c218 9ea9 a23f b5fd 70eb b26f a13f
00000010: 33e7 16df 7d2e b33f 636e 8a93 60a8 613f
00000020: 22dd 1160 c083 ac3f 372a f8f1 5ae1 85bf
00000030: 4444 6bac f31c b53f f96a e3ed 50e4 703f
00000040: dc1a e53e 7af7 ba3f 3732 076b 12bd a33f
00000050: 5460 0df6 b2de a03f b269 216a 9898 9bbf
00000060: be15 221c 1920 883f 923f f7ec 125d 8d3f
00000070: 0ed1 75b7 22d8 823f 1efd 6432 6d84 a43f
00000080: b076 3684 3a04 a4bf c61c 780b 96cd 993f
00000090: 1c50 b682 c3c2 bb3f 84d9 fc9c ea90 85bf
000000a0: 3c6f d781 dbcd a23f 28f6 3243 447a c03f
000000b0: 5048 9c53 fa9b b33f 3c0f 3c73 6ac3 a23f
000000c0: daa0 2c96 54cb 91bf 61cf b454 57e0 933f
000000d0: 506a 5d3e cdb1 7d3f 3ec3 8ad0 7fe6 97bf
000000e0: fe52 7a9a a10e ba3f d236 4486 691a b73f
000000f0: 6de4 040a bd51 9d3f e041 6e22 0956 88bf
00000100: 147a 03a5 992d a23f 2033 20c0 b3b6 ab3f
00000110: 983b d829 e8e0 b83f 8f97 1746 3f3c 97bf
00000120: 31e8 e68e bb11 8cbf a2b4 0f05 dc94 a0bf
00000130: dd41 1520 7d72 9f3f 2023 1f26 73d4 81bf
00000140: fcd6 e9e5 625f 89bf bc1f 7928 463f ac3f
00000150: 7aed 5a77 9dbb 8abf c84e cb46 caf2 bb3f
00000160: 3d7f 57ca f6f0 bd3f 154a 6328 fef0 9f3f
00000170: 98ca a388 5582 a63f 18d3 3400 8a08 a13f
00000180: af02 78f2 979e b23f 8445 b68e 3a59 843f
